best_model.pth (torch, 2991 bytes, 6 tensors)

fc1.weight f4 [16, 2]
00000000: 258c 28bf 4a01 f13e 56ab d83e ab53 19bf
00000010: 60b3 3ebf e459 453f 7c02 85be dee2 2e3f
00000020: eb9f 36bf 0786 afbe 127c 6a3e 47ef 113f
00000030: 77e9 36be c34b 2f3f 7c91 1dbe 72c2 f63e
00000040: c219 1fbf c31b a23e 4d67 c5bd 7f8c 013f
00000050: 20df 47bf dd4c 123d de23 1b3f b9e4 21bf
00000060: d7f9 033f fe83 6cbf dd2d f5be 440d 503f
00000070: 16f7 7e3e 192c 483f cc9c 14bf e761 e63e
-0.65838844 0.47071296 0.4231822 -0.5989329 -0.74492455 0.7709029 -0.25978458 0.6831492
-0.71337765 -0.34281942 0.22898892 0.57005733 -0.17862497 0.6847498 -0.15387529 0.48195225
-0.6214868 0.31661806 -0.09638844 0.50605005 -0.78074837 0.035717834 0.60601604 -0.6323963
0.515531 -0.92388904 -0.47886553 0.8127024 0.24898943 0.7819229 -0.58051753 0.4499657

fc1.bias f4 [16]
00000000: f2d5 b3be 8561 073e 56b3 0ebf 9120 973e
00000010: 6eaa 30bf dbe1 1c3f 348c 733f bdc3 1bbf
00000020: 28dc a3be 0678 693e f763 8bbe 0c33 403f
00000030: b1e8 d43e ecbc 59be 91cd 4a3d c8b9 cabe
-0.35124165 0.13220794 -0.55742395 0.29517034 -0.69010055 0.6128213 0.9513581 -0.6084555
-0.32003903 0.22799692 -0.27224705 0.7507789 0.4158378 -0.21263474 0.04951245 -0.39594865

fc2.weight f4 [8, 16]
00000000: 9627 52be fa19 073f 4905 323d 4933 c7bc
00000010: 634a 923e 0db5 9f3d 0b19 303d 900c 4d3d
00000020: fde5 1bbd 87aa 92be 9967 aebe 9da2 1d3e
00000030: aea5 b63e f6e3 7dbe 81cd 48be 0f55 ab3d
00000040: 537f 74be fbd3 29be 63db 07be 8ddf 993d
00000050: 1eec 5bbd cddb bf3d 8b4d 673e 6012 48bc
00000060: de24 ecbe 1c12 bc3d 8e43 a7bd 15da 223d
00000070: a446 a5bd ac47 7abb 79bc 193d d1c5 bcbe
00000080: 0890 adbc e808 b1be 0e6b 8a3e a294 363e
00000090: 1007 5b3e 2afe 303e 3df2 29bd 8c69 a73d
000000a0: 6b12 533e 39d5 053e 33ee 723e 4673 f1b9
000000b0: 12d7 d63d cfb0 d0bd 0178 a2bd bb2d 2d3e
000000c0: a121 ee3d d326 82bd 280a 993e 4067 f33e
000000d0: 31ea 99be c205 ba3e fd43 f23e e025 c1bd
000000e0: 82b7 8b3d 24a0 ef3e ea24 d93d c6df 53bd
000000f0: c4d1 c5bc 1911 bc3e cb19 883e 5e1f ba3e
00000100: 3418 383e e65f 06be 5a2a fd3e 2fdc 843e
00000110: 90e1 25be dfb0 123e bc8f 0e3f 78ec 03be
00000120: 07d8 b33e 251b 553e 74f7 c23d d8de efba
00000130: 7670 cabd 55ba 0e3f 9246 933d 73e8 c73e
00000140: 4c79 adbd c098 713e 28f1 a7bd 437a 28be
00000150: a510 243d 5f12 ab3c 4faf a6bc 9484 a23d
00000160: 6a81 54bd df12 55be 7b65 22bd 5ed0 3d3e
00000170: 4859 833e bc8b aebe b25b 36be 71d4 a4bc
00000180: 95e9 93be fb65 ae3e 11e3 cf3d 4d44 60bd
00000190: 4fd7 13be 418c b5be f7a3 e2bd 2ae2 783e
000001a0: 21a9 15be 1980 b4be 9242 a7be 34ea af3e
000001b0: 3465 7f3e 01da 87be c1b5 e7be 60bc b7bd
000001c0: 1c39 da3e 12e8 0fbe 0e20 823e 9068 943e
000001d0: 7e0e b93b f8eb 213c beeb 6d3d faee 243e
000001e0: 0009 b33d b094 893e c354 983e f462 69bd
000001f0: 37e3 21bd 7ebc c43e 6435 873e c922 bd3e
-0.20522913 0.5277401 0.04346207 -0.024316447 0.28572378 0.077982046 0.042992633 0.05006081
-0.03806113 -0.28645727 -0.34063414 0.15394063 0.3567328 -0.24793991 -0.19609644 0.08365833
-0.23876695 -0.1658477 -0.13267283 0.07513342 -0.053691976 0.093680955 0.22588174 -0.012211412
-0.46121877 0.091831416 -0.08167182 0.03975876 -0.08070114 -0.0038189692 0.037533257 -0.36869672
-0.021186844 -0.34577107 0.270348 0.17830136 0.21389413 0.17284456 -0.041490782 0.08174428
0.20612495 0.13069619 0.23723678 -0.00046052987 0.1049024 -0.101899736 -0.07933045 0.16911976
0.11627508 -0.063550614 0.2989056 0.4753971 -0.30061486 0.36332518 0.47317496 -0.09431052
0.06822111 0.46801865 0.10602744 -0.05172708 -0.024147876 0.36731794 0.26582178 0.36352056
0.17977983 -0.1312252 0.49446374 0.25949237 -0.16199327 0.14325283 0.5568807 -0.12883174
0.35125753 0.20811136 0.09519854 -0.0018300666 -0.098847315 0.5575307 0.071911946 0.39044532
-0.08470401 0.23593426 -0.08200294 -0.16452889 0.040054936 0.020882783 -0.020347266 0.079354435
-0.05188123 -0.2080798 -0.03964756 0.18536517 0.25654054 -0.34090984 -0.17808416 -0.020120831
-0.28889146 0.3406218 0.10150731 -0.054752637 -0.14437602 -0.35458568 -0.1106643 0.24305025
-0.14615299 -0.3525398 -0.32667977 0.3435837 0.2494095 -0.2653351 -0.45255855 -0.089714766
0.42621696 -0.14053372 0.2541508 0.28986025 0.0056474796 0.0098829195 0.05808615 0.16106787
0.08741951 0.26871252 0.29752168 -0.056979135 -0.03952333 0.38425058 0.2640792 0.369406

fc2.bias f4 [8]
00000000: 863f 0c3e 7bb0 de3e 9d71 f3bd 901d 6b3e
00000010: b08f 893e 023c d63e bf5d 953e de62 d53b
0.13696107 0.4349402 -0.118869044 0.22960496 0.26867437 0.41842657 0.29173085 0.00651203

fc3.weight f4 [3, 8]
00000000: 5e89 933e 7d7b 30bf ff54 7d3d 1a32 40bf
00000010: f5d3 15bf e66e 983e 722c 303e da02 4cbf
00000020: 382a c03b ae4c b73e a813 85be 31a2 6a3e
00000030: 63bd 9b3d 64f4 923e 6739 8cbe fcb4 6cbc
00000040: d957 06bf 63b5 b5bd e8ab a43e c5c6 b33e
00000050: 3fae 5f3e 82e7 0fbf f656 4abf 1fdd d43e
0.2881574 -0.6893843 0.061848637 -0.7507645 -0.58526546 0.2977211 0.17204455 -0.7969185
0.005864408 0.3580069 -0.2599156 0.22913434 0.07604482 0.2870208 -0.27387545 -0.014447447
-0.52477795 -0.088724874 0.32162404 0.35112587 0.21843813 -0.5621263 -0.7903894 0.41574952

fc3.bias f4 [3]
00000000: 3696 4dbe 892d 853e 8bfc 223e
-0.20076832 0.26011303 0.1591665
