model.pth (torch, 11015 bytes, 5 tensors)

fc1.weight f4 [64, 2]
-0.07529523 -0.61392564 -0.06722442 0.06915277 0.67209244 0.6875533 -0.33541572 0.4419715
-0.34665924 -0.5260666 -0.15286985 0.589539 0.4809746 0.34019744 -0.24363126 -0.26820984
0.018900087 0.39223787 0.49725777 -0.53819376 0.58106923 0.42080864 -0.432844 0.58090585
-0.92833275 -0.39129078 0.36083657 0.19222277 0.13004988 0.5171719 -0.56282765 -0.27284926
0.11532244 0.18991254 0.43528992 0.32949394 -0.045358725 0.69701904 -0.5776471 0.5843489
0.5944018 0.7337674 -0.17195055 0.21100275 0.42650267 -0.6369723 -0.49676272 0.71021223
0.012380302 0.2617488 -0.4203086 -0.20876235 -0.33669314 -0.2190423 -0.5123994 -0.18014753
0.12541813 -0.36750922 0.41216415 -0.46320766 0.3878489 -0.38987 -0.5083539 0.34481758
-0.28312954 0.56475574 -0.513415 -0.104721606 -0.55949056 -0.38815686 -0.45767766 -0.4409866
0.6096054 0.07631303 -0.3430338 -0.6280172 -0.49619517 0.6372867 0.53393304 -0.19340819
-0.3957589 0.1551595 -0.8952539 0.5859979 -0.1543147 0.34990183 0.770458 -0.1547868
0.48069292 -0.010327637 -0.26225835 0.28342742 -0.101541154 0.30290744 0.37278968 -0.63190407
0.26579002 0.6681319 -0.6405946 0.06252601 0.6250443 0.08600205 -0.5779874 0.6199509
0.512229 0.38483855 -0.32173482 0.5392266 0.89827627 0.12407369 -0.7639219 0.25287503
0.54455125 -0.13502839 0.40527862 0.58472836 -0.29467645 0.46756315 0.13770323 -0.31839424
-0.13885799 0.55157405 0.017496765 0.53403395 -0.84825534 0.3085162 -0.47215033 -0.22422081
00000000: 6334 9abd 3b2a 1dbf f5ac 89bd f89f 8d3d
00000010: 400e 2c3f 7e03 303f 9cbb abbe 174a e23e
00000020: 527d b1be 4dac 06bf ea89 1cbe 07ec 163f
00000030: 4e42 f63e 5c2e ae3e 797a 79be cd52 89be
00000040: 5bd4 9a3c 67d3 c83e 9298 fe3e 11c7 09bf
00000050: f4c0 143f 3b74 d73e bb9d ddbe 3fb6 143f
00000060: 37a7 6dbf 4457 c8be 92bf b83e 0cd6 443e
00000070: cc2b 053e 6165 043f 7915 10bf e6b2 8bbe
00000080: 2c2e ec3d 6f78 423e 52de de3e 6eb3 a83e
00000090: 12ca 39bd d76f 323f aee0 13bf e497 153f
000000a0: b72a 183f 2ed8 3b3f ce13 30be 1b11 583e
000000b0: 8f5e da3e 9e10 23bf af57 febe 78d0 353f
000000c0: c0d6 4a3c f003 863e b032 d7be ccc5 55be
000000d0: 0b63 acbe a04c 60be 9b2c 03bf 9878 38be
000000e0: 9c6d 003e 2b2a bcbe 2e07 d33e 8e29 edbe
000000f0: 2294 c63e 0a9d c7be 7b23 02bf ee8b b03e
00000100: 5bf6 90be d593 103f 2a6f 03bf 4878 d6bd
00000110: c63a 0fbf 7fbc c6be ba54 eabe ffc8 e1be
00000120: 190f 1c3f 024a 9c3d 20a2 afbe bcc5 20bf
00000130: 4b0d febe 3925 233f d6af 083f cc0c 46be
00000140: e9a0 cabe 22e2 1e3e 5c2f 65bf f503 163f
00000150: ac04 1ebe 5526 b33e bc3c 453f 6e80 1ebe
00000160: 621d f63e 4035 29bc ba46 86be 661d 913e
00000170: cff4 cfbd af16 9b3e 4ade be3e 77c4 21bf
00000180: a115 883e b10a 2b3f 02fe 23bf a30d 803d
00000190: e702 203f d821 b03d fbf6 13bf 1ab5 1e3f
000001a0: 7121 033f 8f09 c53e 6dba a4be c10a 0a3f
000001b0: 6ff5 653f 591a fe3d 6390 43bf d678 813e
000001c0: b667 0b3f e244 0abe ae80 cf3e c2b0 153f
000001d0: d5df 96be 7064 ef3e 1302 0d3e 9204 a3be
000001e0: ca30 0ebe f533 0d3f 6055 8f3c 73b6 083f
000001f0: 4327 59bf d6f5 9d3e b0bd f1be 249a 65be

fc1.bias f4 [64]
0.61505246 0.13899642 -0.006365245 0.6565838 -0.23642248 0.297621 0.49146602 0.28302568
-0.39850366 -0.5598545 0.4019917 0.09959626 0.6593146 -0.41788894 0.13848282 -0.68108296
0.3420534 -0.6943259 -0.064726025 -0.16380633 -0.4678967 0.5109724 -0.03636314 -0.60062766
-0.5672713 -0.53123546 -0.6649532 -0.5210108 -0.67932904 -0.27832994 -0.25370312 -0.42769036
0.24418277 -0.69323075 -0.25289887 -0.4317094 0.52157927 -0.44806364 0.7201717 0.3018563
0.023518855 -0.27857888 -0.08262616 0.13916689 -0.49114853 -0.32839358 0.4579483 -0.64862454
0.46176374 -0.0651951 -0.52045524 0.4588974 0.2760262 -0.13328639 -0.04449888 0.1531928
0.3102611 0.27038497 -0.09715239 0.16325037 0.033801276 -0.57743937 -0.00028393156 -0.08187187
00000000: 1474 1d3f 1455 0e3e 8c93 d0bb e015 283f
00000010: bc18 72be c861 983e 6fa1 fb3e bee8 903e
00000020: ac08 ccbe a052 0fbf dbd1 cd3e 20f9 cb3d
00000030: d7c8 283f 8af5 d5be 71ce 0d3e 745b 2ebf
00000040: a021 af3e 58bf 31bf 148f 84bd d9bc 27be
00000050: 2890 efbe 16cf 023f 84f1 14bd bcc2 19bf
00000060: b138 11bf 0cff 07bf 5f3a 2abf f760 05bf
00000070: 82e8 2dbf 4381 8ebe 60e5 81be 3bfa dabe
00000080: 0c0b 7a3e 9277 31bf f67b 81be 0409 ddbe
00000090: 3886 053f 9968 e5be 2c5d 383f e98c 9a3e
000000a0: 9daa c03c e4a1 8ebe e737 a9bd c481 0e3e
000000b0: d277 fbbe 3423 a8be 3378 ea3e 420c 26bf
000000c0: 4c6c ec3e 0285 85bd 8e3c 05bf 9af4 ea3e
000000d0: 4e53 8d3e 3a7c 08be 7544 36bd 93de 1c3e
000000e0: 8bda 9e3e e66f 8a3e d5f7 c6bd 1b2b 273e
000000f0: 3573 0a3d 11d3 13bf a6dc 94b9 70ac a7bd

fc2.weight f4 [32, 64]
-0.058672532 -0.038895283 -0.022171522 0.058309954 -0.102521494 -0.104302965 0.09963544 0.017128646
0.120939106 0.07102825 -0.013871315 -0.011260005 0.13763683 -0.08144966 -0.110771455 -0.02472265
0.08338989 -0.083252296 0.11612815 -0.029632675 -0.022870472 0.13931526 -0.21776599 -0.012076101
-0.047373906 -0.05833392 0.03767042 -0.05602926 -0.08019069 -0.042665437 -0.0062166005 -0.051874667
0.13886145 -0.03964755 -0.016088754 -0.014376342 -0.08694977 -0.09322274 -0.03120325 -0.043308657
0.056144964 0.1886546 -0.02064244 -0.25719476 0.031827956 -0.058072925 -0.099866025 0.056945965
0.04591275 -0.09869349 -0.091823936 0.14511508 -0.08981734 0.0968361 -0.26410553 0.17245895
0.05555588 0.077225596 -0.035105184 -0.28310356 0.054158024 -0.12272403 0.23184355 0.06417708
-0.09065507 -0.05504997 -0.069040745 0.03067188 -0.052398697 0.04004067 -0.022522524 0.022394761
0.08784141 0.072351515 -0.03230083 -0.0551295 0.012216166 -0.05902961 0.10946803 -0.06343055
-0.0739654 -0.033714622 -0.041906193 -0.04396096 0.03045918 0.04756528 0.012930915 0.022699162
0.054072514 -0.07879554 -0.07887402 0.030726478 -0.112359345 -0.09910211 0.11999506 -0.042539433
-0.08738896 0.06167975 0.0041940063 -0.1162796 -0.046937853 -0.077859 -0.115728736 0.0802325
-0.0773637 -0.03643854 -0.06432426 -0.03615442 0.013299838 -0.069068685 -0.11321756 -0.0986875
-0.11980903 -0.11269854 0.08839126 0.02310595 -0.008982927 0.049175307 -0.0750429 0.032340452
0.027939543 0.0077832043 0.10834199 -0.019386902 0.09807807 -0.02103874 -0.026795104 0.036608726
0.05915904 -0.08841767 0.01626402 0.13805515 -0.043679655 -0.08719566 -0.07086953 0.18949877
0.114587955 -0.10087098 0.057526436 -0.056768276 0.21161653 0.084692046 0.12558779 -0.11274116
0.076270945 -0.110044286 -0.03198558 -0.034937494 -0.018039394 0.1269459 0.20384248 -0.074467234
-0.088174194 -0.122873425 0.01414755 -0.041777134 0.01679419 0.02977775 -0.06235428 -0.021723837
0.01567735 0.110548794 -0.09278953 -0.046687305 -0.08144314 -0.09410949 0.14638595 -0.12439045
-0.008848625 0.10092279 -0.00010200481 -0.20198254 0.020313382 -0.07146698 0.12552679 0.118279085
-0.10066784 -0.0912196 0.07325286 0.10081061 0.09732952 -0.100068115 -0.044028245 0.11714702
-0.108594574 0.05301735 0.1355717 -0.23654929 0.03524183 0.09813759 0.1989407 0.05067292
-0.0018614233 -0.0031893402 -0.05684635 -0.04689078 0.0085630715 -0.020371243 0.08573508 0.02766624
-0.046943814 0.048368067 -0.104754016 -0.09981412 -0.05681847 0.02153863 0.11316511 0.12363228
0.054556638 -0.016124874 0.11114463 -0.083620936 -0.095238835 0.043833956 0.07153103 0.10176395
0.02948229 0.06906846 -0.11593841 -0.022073492 -0.10970846 0.10620338 -0.06496948 0.028623924
0.03280741 -0.12367372 0.12040402 0.05323048 -0.063427016 -0.06498772 0.032547027 -0.0060484856
0.12035893 0.11093578 -0.08714639 0.1119591 -0.026006937 -0.12258962 -0.09064482 -0.059703037
-0.06255141 0.07539657 0.015502468 0.065555826 -0.034456447 0.062532514 -0.051781118 -0.086665004
-0.06768982 0.11742735 0.022486746 -0.066899806 -0.08638589 0.03720899 0.058159977 0.060019806
00000000: 9c52 70bd a950 1fbd 0da1 b5bc 6bd6 6e3d
00000010: caf6 d1bd cb9c d5bd aa0d cc3d 6051 8c3c
00000020: ecae f73d 4277 913d 8344 63bc e27b 38bc
00000030: abf0 0c3e 14cf a6bd 25dc e2bd 2887 cabc
00000040: 52c8 aa3d 2e80 aabd 98d4 ed3d 39c0 f2bc
00000050: db5a bbbc a9a8 0e3e 0cfe 5ebe d7da 45bc
00000060: 240b 42bd 8cef 6ebd 4c4c 1a3d f07e 65bd
00000070: 043b a4bd f4c1 2ebd a0b4 cbbb 887a 54bd
00000080: b231 0e3e 7865 22bd 90cc 83bc c08a 6bbc
00000090: b912 b2bd 90eb bebd f59d ffbc 6b64 31bd
000000a0: 43f8 653d ac2e 413e 561a a9bc 08af 83be
000000b0: 085e 023d e0dd 6dbd 8f86 ccbd 2c40 693d
000000c0: 020f 3c3d d01f cabd 300e bcbd 0c99 143e
000000d0: 27f2 b7bd 0152 c63d d738 87be 1499 303e
000000e0: 908e 633d 7428 9e3d 74ca 0fbd f3f2 90be
000000f0: ced4 5d3d bc56 fbbd 6568 6d3e 466f 833d
00000100: 5ea9 b9bd 147c 61bd 3c65 8dbd 9843 fb3c
00000110: 04a0 56bd b001 243d 2881 b8bc 3875 b73c
00000120: 32e6 b33d 082d 943d e04d 04bd 78cf 61bd
00000130: 5026 483c 08c9 71bd c630 e03d e0e7 81bd
00000140: 2c7b 97bd 5818 0abd d4a5 2bbd 6810 34bd
00000150: 8885 f93c d0d3 423d 30dc 533c 98f3 b93c
00000160: 247b 5d3d 8e5f a1bd b488 a1bd 18b6 fb3c
00000170: a81c e6bd 0cf6 cabd f8bf f53d d43d 2ebd
00000180: fcf8 b2bd e8a3 7c3d e06d 893b 0024 eebd
00000190: e841 40bd 8a74 9fbd 3003 edbd f050 a43d
000001a0: dc70 9ebd 9440 15bd 70bc 83bd a816 14bd
000001b0: 90e7 593c e273 8dbd 9cde e7bd ac1c cabd
000001c0: 705e f5bd 7ece e6bd 7a06 b53d b048 bd3c
000001d0: 202d 13bc 0c6c 493d 18b0 99bd 6c77 043d
000001e0: 78e1 e43c 400a ff3b 68e2 dd3d 48d1 9ebc
000001f0: 28dd c83d 7059 acbc 6881 dbbc 08f3 153d
00000200: c050 723d 5314 b5bd 1f3c 853c 545e 0d3e
00000210: 70e9 32bd a393 b2bd 0b24 91bd f70b 423e
00000220: 17ad ea3d 7295 cebd d7a0 6b3d da85 68bd
00000230: 01b2 583e 0673 ad3d 169a 003e d6e4 e6bd
00000240: f133 9c3d e65e e1bd 5003 03bd 9e1a 0fbd
00000250: 5ac7 93bc 1bfe 013e 15bc 503e 4782 98bd
00000260: ac94 b4bd 10a5 fbbd 20cb 673c 801e 2bbd
00000270: f893 893c 78f0 f33c 3467 7fbd 30f6 b1bc
00000280: c96d 803c 6867 e23d 7008 bebd 303b 3fbd
00000290: a9cb a6bd 7abc c0bd 33e6 153e 6cc0 febd
000002a0: d3f9 10bc 9cb0 ce3d 6aeb d5b8 83d4 4ebe
000002b0: 4068 a63c 485d 92bd 188a 003e 4e3c f23d
000002c0: f12a cebd 57d1 babd 9805 963d cb75 ce3d
000002d0: b354 c73d 83f0 ccbd f656 34bd c7ea ef3d
000002e0: d566 debd b928 593d 4fd3 0a3e fa39 72be
000002f0: bd59 103d 5cfc c83d 1cb7 4b3e 688e 4f3d
00000300: 00fb f3ba 4004 51bb b8d7 68bd 8c10 40bd
00000310: 204c 0c3c 98e1 a6bc e095 af3d 50a4 e23c
00000320: 2848 40bd 981d 463d 4689 d6bd 586b ccbd
00000330: 7cba 68bd c871 b03c 1cc3 e73d ec32 fd3d
00000340: c876 5f3d 5018 84bc cc9f e33d 7441 abbd
00000350: 940c c3bd 3c8b 333d dc7e 923d 9e69 d03d
00000360: d884 f13c c473 8d3d 1e71 edbd 78d3 b4bc
00000370: d4ae e0bd 2881 d93d b80e 85bd b87c ea3c
00000380: 1061 063d a648 fdbd 6296 f63d 3408 5a3d
00000390: 06e6 81bd 4818 85bd 0850 053d 6032 c6bb
000003a0: be7e f63d 4c32 e33d ce79 b2bd d04a e53d
000003b0: 800c d5bc 4410 fbbd fea3 b9bd 2c8b 74bd
000003c0: f41a 80bd 8469 9a3d 10fe 7d3c 2242 863d
000003d0: 3422 0dbd 0c11 803d 7018 54bd 6c7d b1bd
000003e0: f6a0 8abd c07d f03d 2036 b83c c402 89bd
000003f0: 16eb b0bd 7468 183d 2839 6e3d 54d7 753d

fc2.bias f4 [32]
0.08016599 -0.058106646 0.13488728 -0.08391546 0.043832894 -0.015634626 0.044397917 -0.06901628
-0.0885198 -0.036060303 -0.05046965 0.09206501 -0.09802683 -0.049607057 0.0948636 0.12062561
0.07651441 -0.076784715 -0.06289898 0.13075595 -0.0060175383 0.09685481 -0.043702736 -0.004040614
0.043742254 0.03379988 0.12027241 -0.10950201 -0.09515801 -0.030230084 -0.08051209 -0.0071226954
00000000: 112e a43d 3c01 6ebd e41f 0a3e dedb abbd
00000010: 1f8a 333d 3014 80bc 97da 353d 6858 8dbd
00000020: de49 b5bd f8b3 13bd 44b9 4ebd 948c bc3d
00000030: 4ac2 c8bd c530 4bbd d947 c23d 8f0a f73d
00000040: 96b3 9c3d 4e41 9dbd 2ed1 80bd e3e4 053e
00000050: c52e c5bb d15b c63d a401 33bd 2067 84bb
00000060: 142b 333d be71 0a3d 6251 f63d 9742 e0bd
00000070: 34e2 c2bd 15a5 f7bc 86e3 a4bd 8065 e9bb

fc3.weight f4 [1, 32]
0.041224804 -0.08551117 0.039283644 0.14423679 0.025485072 -0.15426745 -0.18300247 -0.09997603
0.05342886 0.08681385 -0.14325383 -0.17300001 0.11729644 0.0035194554 -0.07863642 0.15283298
-0.07355152 -0.14745735 0.16684678 0.20924935 -0.11191863 0.1730153 -0.13405786 0.04637222
0.028479412 -0.12557837 0.0637964 -0.28504154 0.18930258 0.004381376 0.10555805 -0.06583788
00000000: 57db 283d 7b20 afbd e3e7 203d cfb2 133e
00000010: 12c6 d03c 49f8 1dbe 0065 3bbe 3cc0 ccbd
00000020: 38d8 5a3d 76cb b13d 22b1 12be ea26 31be
00000030: 1e39 f03d aaa6 663b 220c a1bd 4080 1c3e
00000040: 2ea2 96bd 0fff 16be e2d9 2a3e 7645 563e
00000050: 9835 e5bd ec2a 313e 7746 09be ccf0 3d3d
00000060: a84d e93c 9e97 00be b0a7 823d f7f0 91be
00000070: 89d8 413e a591 8f3b d22e d83d 03d6 86bd
